…
g Agency, E-Funding Agency, I-Funding Agency, S-Grant Number, B-Grant Number, E-Grant Number, I-Grant Number, S-Person, B-Person, E-Person, I-Person, S-University, B-University, E-University, I-University, S-Miscellaneous, B-Miscellaneous, E-Miscellaneous, I-Miscellaneous, S-Corporation, B-Corporation, E-Corporation, I-Corporation
2023-12-10 13:42:04,006 ----------------------------------------------------------------------------------------------------
2023-12-10 13:42:04,008 Model: "SequenceTagger(
  (embeddings): TransformerWordEmbeddings(
    (model): XLNetModel(
      (word_embedding): Embedding(32001, 1024)
      (layer): ModuleList(
        (0): XLNetLayer(
          (rel_attn): XLNetRelativeAttention(
            (layer_norm): LayerNorm((1024,), eps=1e-12, elementwise_affine=True)
            (dropout): Dropout(p=0.1, inplace=False)
          )
          (ff): XLNetFeedForward(
            (layer_norm): LayerNorm((1024,), eps=1e-12, elementwise_affine=True)
            (layer_1): Linear(in_features=1024, out_features=4096, bias=True)
            (layer_2): Linear(in_features=4096, out_features=1024, bias=True)
            (dropout): Dropout(p=0.1, inplace=False)
            (activation_function): GELUActivation()
          )
          (dropout): Dropout(p=0.1, inplace=False)
        )
        (1): XLNetLayer(
          (rel_attn): XLNetRelativeAttention(
            (layer_norm): LayerNorm((1024,), eps=1e-12, elementwise_affine=True)
            (dropout): Dropout(p=0.1, inplace=False)
          )
          (ff): XLNetFeedForward(
            (layer_norm): LayerNorm((1024,), eps=1e-12, elementwise_affine=True)
            (layer_1): Linear(in_features=1024, out_features=4096, bias=True)
            (layer_2): Linear(in_features=4096, out_features=1024, bias=True)
            (dropout): Dropout(p=0.1, inplace=False)
            (activation_function): GELUActivation()
          )
          (dropout): Dropout(p=0.1, inplace=False)
        )
        (2): XLNetLayer(
          (rel_attn): XLNetRelativeAttention(
            (layer_norm): LayerNorm((1024,), eps=1e-12, elementwise_affine=True)
            (dropout): Dropout(p=0.1, inplace=False)
          )
          (ff): XLNetFeedForward(
            (layer_norm): LayerNorm((1024,), eps=1e-12, elementwise_affine=True)
            (layer_1): Linear(in_features=1024, out_features=4096, bias=True)
            (layer_2): Linear(in_features=4096, out_features=1024, bias=True)
            (dropout): Dropout(p=0.1, inplace=False)
            (activation_function): GELUActivation()
          )
          (dropout): Dropout(p=0.1, inplace=False)
        )
        (3): XLNetLayer(
          (rel_attn): XLNetRelativeAttention(
            (layer_norm): LayerNorm((1024,), eps=1e-12, elementwise_affine=True)
            (dropout): Dropout(p=0.1, inplace=False)
          )
          (ff): XLNetFeedForward(
            (layer_norm): LayerNorm((1024,), eps=1e-12, elementwise_affine=True)
            (layer_1): Linear(in_features=1024, out_features=4096, bias=True)
            (layer_2): Linear(in_features=4096, out_features=1024, bias=True)
            (dropout): Dropout(p=0.1, inplace=False)
            (activation_function): GELUActivation()
          )
          (dropout): Dropout(p=0.1, inplace=False)
        )
        (4): XLNetLayer(
          (rel_attn): XLNetRelativeAttention(
            (layer_norm): LayerNorm((1024,), eps=1e-12, elementwise_affine=True)
            (dropout): Dropout(p=0.1, inplace=False)
          )
          (ff): XLNetFeedForward(
            (layer_norm): LayerNorm((1024,), eps=1e-12, elementwise_affine=True)
            (layer_1): Linear(in_features=1024, out_features=4096, bias=True)
            (layer_2): Linear(in_features=4096, out_features=1024, bias=True)
            (dropout): Dropout(p=0.1, inplace=False)
            (activation_function): GELUActivation()
          )
          (dropout): Dropout(p=0.1, inplace=False)
        )
        (5): XLNetLayer(
          (rel_attn): XLNetRelativeAttention(
            (layer_norm): LayerNorm((1024,), eps=1e-12, elementwise_affine=True)
            (dropout): Dropout(p=0.1, inplace=False)
          )
          (ff): XLNetFeedForward(
            (layer_norm): LayerNorm((1024,), eps=1e-12, elementwise_affine=True)
            (layer_1): Linear(in_features=1024, out_features=4096, bias=True)
            (layer_2): Linear(in_features=4096, out_features=1024, bias=True)
            (dropout): Dropout(p=0.1, inplace=False)
            (activation_function): GELUActivation()
          )
          (dropout): Dropout(p=0.1, inplace=False)
        )
        (6): XLNetLayer(
          (rel_attn): XLNetRelativeAttention(
            (layer_norm): LayerNorm((1024,), eps=1e-12, elementwise_affine=True)
            (dropout): Dropout(p=0.1, inplace=False)
          )
          (ff): XLNetFeedForward(
            (layer_norm): LayerNorm((1024,), eps=1e-12, elementwise_affine=True)
            (layer_1): Linear(in_features=1024, out_features=4096, bias=True)
            (layer_2): Linear(in_features=4096, out_features=1024, bias=True)
            (dropout): Dropout(p=0.1, inplace=False)
            (activation_function): GELUActivation()
          )
          (dropout): Dropout(p=0.1, inplace=False)
        )
        (7): XLNetLayer(
          (rel_attn): XLNetRelativeAttention(
            (layer_norm): LayerNorm((1024,), eps=1e-12, elementwise_affine=True)
            (dropout): Dropout(p=0.1, inplace=False)
          )
          (ff): XLNetFeedForward(
            (layer_norm): LayerNorm((1024,), eps=1e-12, elementwise_affine=True)
            (layer_1): Linear(in_features=1024, out_features=4096, bias=True)
            (layer_2): Linear(in_features=4096, out_features=1024, bias=True)
            (dropout): Dropout(p=0.1, inplace=False)
            (activation_function): GELUActivation()
          )
          (dropout): Dropout(p=0.1, inplace=False)
        )
        (8): XLNetLayer(
          (rel_attn): XLNetRelativeAttention(
            (layer_norm): LayerNorm((1024,), eps=1e-12, elementwise_affine=True)
            (dropout): Dropout(p=0.1, inplace=False)
          )
          (ff): XLNetFeedForward(
            (layer_norm): LayerNorm((1024,), eps=1e-12, elementwise_affine=True)
            (layer_1): Linear(in_features=1024, out_features=4096, bias=True)
            (layer_2): Linear(in_features=4096, out_features=1024, bias=True)
            (dropout): Dropout(p=0.1, inplace=False)
            (activation_function): GELUActivation()
          )
          (dropout): Dropout(p=0.1, inplace=False)
        )
        (9): XLNetLayer(
          (rel_attn): XLNetRelativeAttention(
            (layer_norm): LayerNorm((1024,), eps=1e-12, elementwise_affine=True)
            (dropout): Dropout(p=0.1, inplace=False)
          )
          (ff): XLNetFeedForward(
            (layer_norm): LayerNorm((1024,), eps=1e-12, elementwise_affine=True)
            (layer_1): Linear(in_features=1024, out_features=4096, bias=True)
            (layer_2): Linear(in_features=4096, out_features=1024, bias=True)
            (dropout): Dropout(p=0.1, inplace=False)
            (activation_function): GELUActivation()
          )
          (dropout): Dropout(p=0.1, inplace=False)
        )
        (10): XLNetLayer(
          (rel_attn): XLNetRelativeAttention(
            (layer_norm): LayerNorm((1024,), eps=1e-12, elementwise_affine=True)
            (dropout): Dropout(p=0.1, inplace=False)
          )
          (ff): XLNetFeedForward(
            (layer_norm): LayerNorm((1024,), eps=1e-12, elementwise_affine=True)
            (layer_1): Linear(in_features=1024, out_features=4096, bias=True)
            (layer_2): Linear(in_features=4096, out_features=1024, bias=True)
            (dropout): Dropout(p=0.1, inplace=False)
            (activation_function): GELUActivation()
          )
          (dropout): Dropout(p=0.1, inplace=False)
        )
        (11): XLNetLayer(
          (rel_attn): XLNetRelativeAttention(
            (layer_norm): LayerNorm((1024,), eps=1e-12, elementwise_affine=True)
            (dropout): Dropout(p=0.1, inplace=False)
          )
          (ff): XLNetFeedForward(
            (layer_norm): LayerNorm((1024,), eps=1e-12, elementwise_affine=True)
            (layer_1): Linear(in_features=1024, out_features=4096, bias=True)
            (layer_2): Linear(in_features=4096, out_features=1024, bias=True)
            (dropout): Dropout(p=0.1, inplace=False)
            (activation_function): GELUActivation()
          )
          (dropout): Dropout(p=0.1, inplace=False)
        )
        (12): XLNetLayer(
          (rel_attn): XLNetRelativeAttention(
            (layer_norm): LayerNorm((1024,), eps=1e-12, elementwise_affine=True)
            (dropout): Dropout(p=0.1, inplace=False)
          )
          (ff): XLNetFeedForward(
            (layer_norm): LayerNorm((1024,), eps=1e-12, elementwise_affine=True)
            (layer_1): Linear(in_features=1024, out_features=4096, bias=True)
            (layer_2): Linear(in_features=4096, out_features=1024, bias=True)
            (dropout): Dropout(p=0.1, inplace=False)
            (activation_function): GELUActivation()
          )
          (dropout): Dropout(p=0.1, inplace=False)
        )
        (13): XLNetLayer(
          (rel_attn): XLNetRelativeAttention(
            (layer_norm): LayerNorm((1024,), eps=1e-12, elementwise_affine=True)
            (dropout): Dropout(p=0.1, inplace=False)
          )
          (ff): XLNetFeedForward(
            (layer_norm): LayerNorm((1024,), eps=1e-12, elementwise_affine=True)
            (layer_1): Linear(in_features=1024, out_features=4096, bias=True)
            (layer_2): Linear(in_features=4096, out_features=1024, bias=True)
            (dropout): Dropout(p=0.1, inplace=False)
            (activation_function): GELUActivation()
          )
          (dropout): Dropout(p=0.1, inplace=False)
        )
        (14): XLNetLayer(
          (rel_attn): XLNetRelativeAttention(
            (layer_norm): LayerNorm((1024,), eps=1e-12, elementwise_affine=True)
            (dropout): Dropout(p=0.1, inplace=False)
          )
          (ff): XLNetFeedForward(
            (layer_norm): LayerNorm((1024,), eps=1e-12, elementwise_affine=True)
            (layer_1): Linear(in_features=1024, out_features=4096, bias=True)
            (layer_2): Linear(in_features=4096, out_features=1024, bias=True)
            (dropout): Dropout(p=0.1, inplace=False)
            (activation_function): GELUActivation()
          )
          (dropout): Dropout(p=0.1, inplace=False)
        )
        (15): XLNetLayer(
          (rel_attn): XLNetRelativeAttention(
            (layer_norm): LayerNorm((1024,), eps=1e-12, elementwise_affine=True)
            (dropout): Dropout(p=0.1, inplace=False)
          )
          (ff): XLNetFeedForward(
            (layer_norm): LayerNorm((1024,), eps=1e-12, elementwise_affine=True)
            (layer_1): Linear(in_features=1024, out_features=4096, bias=True)
            (layer_2): Linear(in_features=4096, out_features=1024, bias=True)
            (dropout): Dropout(p=0.1, inplace=False)
            (activation_function): GELUActivation()
          )
          (dropout): Dropout(p=0.1, inplace=False)
        )
        (16): XLNetLayer(
          (rel_attn): XLNetRelativeAttention(
            (layer_norm): LayerNorm((1024,), eps=1e-12, elementwise_affine=True)
            (dropout): Dropout(p=0.1, inplace=False)
          )
          (ff): XLNetFeedForward(
            (layer_norm): LayerNorm((1024,), eps=1e-12, elementwise_affine=True)
            (layer_1): Linear(in_features=1024, out_features=4096, bias=True)
            (layer_2): Linear(in_features=4096, out_features=1024, bias=True)
            (dropout): Dropout(p=0.1, inplace=False)
            (activation_function): GELUActivation()
          )
          (dropout): Dropout(p=0.1, inplace=False)
        )
        (17): XLNetLayer(
          (rel_attn): XLNetRelativeAttention(
            (layer_norm): LayerNorm((1024,), eps=1e-12, elementwise_affine=True)
            (dropout): Dropout(p=0.1, inplace=False)
          )
          (ff): XLNetFeedForward(
            (layer_norm): LayerNorm((1024,), eps=1e-12, elementwise_affine=True)
            (layer_1): Linear(in_features=1024, out_features=4096, bias=True)
            (layer_2): Linear(in_features=4096, out_features=1024, bias=True)
            (dropout): Dropout(p=0.1, inplace=False)
            (activation_function): GELUActivation()
          )
          (dropout): Dropout(p=0.1, inplace=False)
        )
        (18): XLNetLayer(
          (rel_attn): XLNetRelativeAttention(
            (layer_norm): LayerNorm((1024,), eps=1e-12, elementwise_affine=True)
            (dropout): Dropout(p=0.1, inplace=False)
          )
          (ff): XLNetFeedForward(
            (layer_norm): LayerNorm((1024,), eps=1e-12, elementwise_affine=True)
            (layer_1): Linear(in_features=1024, out_features=4096, bias=True)
            (layer_2): Linear(in_features=4096, out_features=1024, bias=True)
            (dropout): Dropout(p=0.1, inplace=False)
            (activation_function): GELUActivation()
          )
          (dropout): Dropout(p=0.1, inplace=False)
        )
        (19): XLNetLayer(
          (rel_attn): XLNetRelativeAttention(
            (layer_norm): LayerNorm((1024,), eps=1e-12, elementwise_affine=True)
            (dropout): Dropout(p=0.1, inplace=False)
          )
          (ff): XLNetFeedForward(
            (layer_norm): LayerNorm((1024,), eps=1e-12, elementwise_affine=True)
            (layer_1): Linear(in_features=1024, out_features=4096, bias=True)
            (layer_2): Linear(in_features=4096, out_features=1024, bias=True)
            (dropout): Dropout(p=0.1, inplace=False)
            (activation_function): GELUActivation()
          )
          (dropout): Dropout(p=0.1, inplace=False)
        )
        (20): XLNetLayer(
          (rel_attn): XLNetRelativeAttention(
            (layer_norm): LayerNorm((1024,), eps=1e-12, elementwise_affine=True)
            (dropout): Dropout(p=0.1, inplace=False)
          )
          (ff): XLNetFeedForward(
            (layer_norm): LayerNorm((1024,), eps=1e-12, elementwise_affine=True)
            (layer_1): Linear(in_features=1024, out_features=4096, bias=True)
            (layer_2): Linear(in_features=4096, out_features=1024, bias=True)
            (dropout): Dropout(p=0.1, inplace=False)
            (activation_function): GELUActivation()
          )
          (dropout): Dropout(p=0.1, inplace=False)
        )
        (21): XLNetLayer(
          (rel_attn): XLNetRelativeAttention(
            (layer_norm): LayerNorm((1024,), eps=1e-12, elementwise_affine=True)
            (dropout): Dropout(p=0.1, inplace=False)
          )
          (ff): XLNetFeedForward(
            (layer_norm): LayerNorm((1024,), eps=1e-12, elementwise_affine=True)
            (layer_1): Linear(in_features=1024, out_features=4096, bias=True)
            (layer_2): Linear(in_features=4096, out_features=1024, bias=True)
            (dropout): Dropout(p=0.1, inplace=False)
            (activation_function): GELUActivation()
          )
          (dropout): Dropout(p=0.1, inplace=False)
        )
        (22): XLNetLayer(
          (rel_attn): XLNetRelativeAttention(
            (layer_norm): LayerNorm((1024,), eps=1e-12, elementwise_affine=True)
            (dropout): Dropout(p=0.1, inplace=False)
          )
          (ff): XLNetFeedForward(
            (layer_norm): LayerNorm((1024,), eps=1e-12, elementwise_affine=True)
            (layer_1): Linear(in_features=1024, out_features=4096, bias=True)
            (layer_2): Linear(in_features=4096, out_features=1024, bias=True)
            (dropout): Dropout(p=0.1, inplace=False)
            (activation_function): GELUActivation()
          )
          (dropout): Dropout(p=0.1, inplace=False)
        )
        (23): XLNetLayer(
          (rel_attn): XLNetRelativeAttention(
            (layer_norm): LayerNorm((1024,), eps=1e-12, elementwise_affine=True)
            (dropout): Dropout(p=0.1, inplace=False)
          )
          (ff): XLNetFeedForward(
            (layer_norm): LayerNorm((1024,), eps=1e-12, elementwise_affine=True)
            (layer_1): Linear(in_features=1024, out_features=4096, bias=True)
            (layer_2): Linear(in_features=4096, out_features=1024, bias=True)
            (dropout): Dropout(p=0.1, inplace=False)
            (activation_function): GELUActivation()
          )
          (dropout): Dropout(p=0.1, inplace=False)
        )
      )
      (dropout): Dropout(p=0.1, inplace=False)
    )
  )
  (locked_dropout): LockedDropout(p=0.5)
  (linear): Linear(in_features=1024, out_features=25, bias=True)
  (loss_function): CrossEntropyLoss()
)"
2023-12-10 13:42:04,009 ----------------------------------------------------------------------------------------------------
2023-12-10 13:42:04,009 Corpus: 1145 train + 150 dev + 164 test sentences
2023-12-10 13:42:04,010 ----------------------------------------------------------------------------------------------------
…
